train_data/neuron_weights/neuron_weights_rectangle.npy (npy, 131200 bytes, 1 tensors)

array f8 [128, 128]
0.4142093167919171 0.04983729537627257 0.6708596500253737 0.5150257605512344 0.38753698568300077 0.5799533309424669 0.5145709977287225 1.1955895367921656
1.6073677078464752 1.1879056788495808 4.265172844932703 6.823761504413893 7.147844451801063 9.167551314275071 14.749619341909687 18.6914593466495
23.723072592268007 29.897445071304567 33.582515271085434 39.65342547690017 46.92021095310755 46.0321372167975 51.10312615981128 52.33288255171884
56.10830136642933 60.8268394732351 58.591202945231316 59.132515780643644 68.45448175070176 65.20731607600052 79.38616624967108 72.2191016512038
76.92899489692883 79.49264518337816 83.11226254867017 82.63593765414427 94.31392518865125 104.79032056014691 101.16839012393297 103.31299979494668
103.13767619688153 114.83411660625175 111.88002707655626 116.40473126217644 118.88298493981873 129.016930470612 133.08545402428584 135.19915195121314
140.97772369917323 147.7015037718873 147.53330591784433 152.53888595709236 152.6567387662506 154.1279156485781 155.39222055248962 157.6376492613811
153.8255215095533 154.04034389107795 158.4253589883542 150.6343493855142 146.4133898690348 138.20306823007385 134.74849698637544 133.1908371279679
138.85787504950724 147.02908869562947 145.83047455972053 146.75852021763131 151.38393644384342 147.72148619582322 148.10387309253295 141.10645226434886
140.91737925763542 145.6273463164859 146.3342009621642 153.99880930491557 148.1960266084117 135.99833438971564 130.91968733504578 128.59545640876985
140.99695968659842 140.58879168863064 128.64272816663222 130.7048454895005 132.31150851086076 143.3466126203895 134.02345730239958 136.82003851393904
140.5986952448755 147.6636612367514 152.51967042453467 150.58831252693767 135.7857438524085 127.64337365247965 119.52646052448455 128.6352371843427
129.53616954901833 117.67827898501852 124.66120198731035 121.80519785790503 120.65667386103736 112.38398419122453 112.25029680372234 107.32029570451175
94.07051508309024 101.53748602103244 98.77066920840025 89.78015033249991 85.72873294868225 79.64530365007215 81.84976263368836 54.282207371362496
50.436056967097535 62.319795734234006 49.268926694026476 32.60912746552022 21.49587355054736 12.137084807672641 8.986934565387834 5.093988654680125
5.16304753610048 2.1772134353713577 1.37357728945787 1.7792621266749706 1.6482239725928594 0.09399991005160413 0.3720821081529906 0.5646770280410133
0.31752871634618685 0.46174732794428275 0.22973661179757798 0.6873881273735745 0.9588388190490192 1.0831690769756541 2.7457845806309042 7.734264933401442
15.232426150515991 33.61515157535225 71.35329141203825 107.04236210122237 137.3307983576573 137.90185405049544 160.04969320822997 122.22715150346835
129.8933217030816 136.12187447347958 145.49103122678517 149.447540497004 107.17512626304196 61.15138212724868 75.89779779793878 63.38290260763968
23.100222235487017 5.654838195555001 24.76351553848007 2.4471913806327734 -11.842901974429338 -8.85893619244157 -60.228721809570374 2.7483589158608
-36.96285379613666 -63.60989133935287 -11.251580424400965 2.2350868529378722 10.847284767825315 11.495477639958736 33.66181308767841 -1.192151842712466
-22.236390070913558 -35.028178333109096 -47.883951560276714 12.453288979716074 15.68942582106601 1.3218701234426025 -15.361052562509036 -4.071035312414507
-23.605004648703314 -33.14283261085232 36.443849070211144 3.9109408474482237 -42.88307623071747 -27.560097286892752 -49.636404596762716 -17.189970689557427
0.2170229712207732 -20.99986465358799 7.3760795795419725 4.0867939647269775 61.04046579569088 17.782101086428874 14.575104503043796 17.90809248653879
-44.12438761044753 -15.24636891552639 -2.988193022401953 22.701696711167404 20.175980390589185 -7.079718074930236 -26.319830675039718 -22.614469515176793
36.56038365544083 60.027355114431955 41.009277597027925 14.329537694600631 6.637065936907671 -26.136803673041243 -8.959658035517535 -4.346573737787562
68.06094417572756 7.112338790721509 3.8590220638418486 19.519719173019205 25.55654265569654 58.963220142986984 -17.30767801349198 41.294876679840264
80.87084426486611 12.087327507331374 10.723949954502459 -29.817921222146424 26.216316582234498 -7.4357751767310205 -25.4800123497373 -31.181432560039646
-21.315984256746134 18.38600215131713 -25.5330036402311 -30.09121867321396 17.89653172978322 18.437147512829988 46.19640548837483 18.96100027695726
28.001573514526875 -32.350031275011304 13.125844941518487 14.854890811664513 38.43837442017021 -118.28181923962399 -235.05113248581554 -117.13659391027011
-16.287686002084733 36.020635084515284 -4.514335701299508 160.37716789514585 391.5110542825519 376.4818005875261 159.45091404898812 67.85713846163326
29.49085441108256 10.825091437541436 5.679327654442324 2.1920792042594983 1.892974852323973 0.4973350327797931 0.4775296563260124 0.20321823271156259
00000000: 6677 54cb 6782 da3f d03c 8623 4684 a93f
00000010: 5d14 22a8 ae77 e53f 5348 c54d 177b e03f
00000020: 1eee dfed 67cd d83f 4855 b349 fa8e e23f
00000030: e6e0 d698 5d77 e03f ed64 7f7e 2221 f33f
00000040: b28d 9d33 c7b7 f93f 1c44 9662 a901 f33f
00000050: cc17 6378 890f 1140 4ea5 c422 884b 1b40
00000060: c085 3589 6497 1c40 2f6d 2e49 c955 2240
00000070: fde6 3b1b ce7f 2d40 855f d07a 03b1 3240
00000080: cf6c 1049 1bb9 3740 a235 cff5 bee5 3d40
00000090: c35d 43dc 8fca 4040 68d4 2e72 a3d3 4340
000000a0: 4b82 f678 c975 4740 9b90 8312 1d04 4740
000000b0: 32e0 ed3c 338d 4940 4e85 3ce5 9b2a 4a40
000000c0: 8a76 b5d1 dc0d 4c40 164b 38e0 d569 4e40
000000d0: a088 c189 ac4b 4d40 c008 f046 f690 4d40
000000e0: 25f9 9f3a 161d 5140 de96 a5aa 444d 5040
000000f0: 004a a5f2 b6d8 5340 e09a eec2 050e 5240
00000100: 741d 03a7 743b 5340 08c9 a97f 87df 5340
00000110: a8c6 414f 2fc7 5440 0eb6 d833 b3a8 5440
00000120: 75a9 ac59 1794 5740 fecb af9c 9432 5a40
00000130: bcd0 5ee7 c64a 5940 d8bc 4a30 08d4 5940
00000140: cec2 d2af cfc8 5940 b739 9e2a 62b5 5c40
00000150: d559 165d 52f8 5b40 ddad f31d e719 5d40
00000160: 72d8 43d3 82b8 5d40 b432 c5b1 8a20 6040
00000170: d1f3 130a bca2 6040 a4ac e973 5fe6 6040
00000180: 240f 3683 499f 6140 dac8 09b8 7276 6240
00000190: f37c 92d7 1071 6240 883f c38d 3e11 6340
000001a0: fa61 0401 0415 6340 44e9 8ee2 1744 6340
000001b0: 62b8 1d12 8d6c 6340 6a7e 6c9f 67b4 6340
000001c0: a2b5 15ac 6a3a 6340 be98 457f 4a41 6340
000001d0: 4f01 748a 9ccd 6340 ae20 1597 4cd4 6240
000001e0: 1200 647d 3a4d 6240 c3e0 f188 7f46 6140
000001f0: 63b4 f3af f3d7 6040 83ef 7656 1ba6 6040
00000200: 0436 60b6 735b 6140 2e8d 6a4b ee60 6240
00000210: 1c45 623f 933a 6240 9a02 31cc 4558 6240
00000220: 9ac1 1435 49ec 6240 70f2 376a 1677 6240
00000230: a1eb a9ed 5283 6240 d53e 940e 68a3 6140
00000240: 55b2 be2b 5b9d 6140 5612 9538 1334 6240
00000250: 2f59 37c6 b14a 6240 b171 ee3e f63f 6340
00000260: c508 98d9 4586 6240 a049 f65a f2ff 6040
00000270: 2552 2214 6e5d 6040 863b 99fa 0d13 6040
00000280: dc2b 0018 e79f 6140 68da aa61 d792 6140
00000290: e9fc a83a 9114 6040 69c4 2018 8e56 6040
000002a0: 5352 b2e0 f789 6040 859e 5973 17eb 6140
000002b0: 1355 8729 c0c0 6040 84da 68c1 3d1a 6140
000002c0: 5a20 ee82 2893 6140 0c6f 7db6 3c75 6240
000002d0: 65c2 de23 a110 6340 c8e0 ca74 d3d2 6240
000002e0: 15a4 4ad0 24f9 6040 8620 af08 2de9 5f40
000002f0: f4d2 7b87 b1e1 5d40 907e eedc 5314 6040
00000300: a2c4 0a4d 2831 6040 fe8d 42ec 686b 5d40
00000310: 15e3 2322 512a 5f40 baa0 985c 8873 5e40
00000320: c952 cdf1 062a 5e40 62df 6d32 9318 5c40
00000330: f891 e2dc 0410 5c40 58fb 8db9 7fd4 5a40
00000340: d4ef b151 8384 5740 0e99 c42b 6662 5940
00000350: 4087 f1a4 52b1 5840 3e03 a9fb ed71 5640
00000360: e886 858f a36e 5540 2843 aea7 4ce9 5340
00000370: 7a43 d082 6276 5440 9558 035f 1f24 4b40
00000380: 3d70 f6b6 d037 4940 baf7 0d11 ef28 4f40
00000390: bcee 9d30 6ca2 4840 9ac0 87e3 f74d 4040
000003a0: 648d aa91 f17e 3540 0377 dbfa 2f46 2840
000003b0: f443 c37c 4ff9 2140 482f d88f 3e60 1440
000003c0: d2fa ecee f5a6 1440 82a7 aae0 ee6a 0140
000003d0: 7fff 0b2e 2cfa f53f 5a49 5190 db77 fc3f
000003e0: 0050 ac19 205f fa3f 08a3 7fcb 6010 b83f
000003f0: b467 7c79 31d0 d73f d5a2 078f d511 e23f
00000400: dcda 0ff7 6352 d43f 284f 22aa 448d dd3f
00000410: 24a6 2e61 0268 cd3f 4a4d d762 15ff e53f
00000420: f36c 3ebf ceae ee3f 1062 1a19 a954 f13f
00000430: d15d fde7 5df7 0540 393c 8e25 e3ef 1e40
00000440: 1867 768f 0077 2e40 431c 6d49 bdce 4040
00000450: 5d2a 9553 9cd6 5140 c1d5 870f b6c2 5a40
00000460: adf6 6fe6 952a 6140 9494 06fd db3c 6140
00000470: cb05 3616 9701 6440 90a8 75a6 898e 5e40
00000480: 5c71 6517 963c 6040 fcb9 4b65 e603 6140
00000490: 6d8b 1e87 b62f 6240 92c8 7240 52ae 6240
000004a0: e61b c944 35cb 5a40 b2dd 527d 6093 4e40
000004b0: 5824 e584 75f9 5240 caae e0f3 02b1 4f40
000004c0: aebf 172a a819 3740 5052 68e7 8d9e 1640
000004d0: 7ec2 1bc1 75c3 3840 80f7 1613 d993 0340
000004e0: d0d0 fbd8 90af 27c0 4dc6 0f7c c6b7 21c0
000004f0: 4cfe 99c1 461d 4ec0 5456 6a99 a3fc 0540
00000500: 439e 0ecb 3e7b 42c0 2e51 5eeb 10ce 4fc0
00000510: 5d3b 3e26 cf80 26c0 a8b3 4837 75e1 0140
00000520: d86a 204f cfb1 2540 480b c73e affd 2640
00000530: 60d2 8f4a b6d4 4040 100f 85cf 0d13 f3bf
00000540: 40ac 470f 843c 36c0 6694 fd58 9b83 41c0
00000550: 7e51 2153 25f1 47c0 1609 3f7e 15e8 2840
00000560: 30fe d46b fc60 2f40 68ed 5b49 6126 f53f
00000570: 033a a8e1 dbb8 2ec0 ceb9 1e7b bd48 10c0
00000580: d41b ac95 e19a 37c0 dd34 c856 4892 40c0
00000590: 5c75 dc0b d038 4240 900b e35a 9b49 0f40
000005a0: 3b67 55a4 0871 45c0 5fc8 2989 628f 3bc0
000005b0: 5a0f b1b4 75d1 48c0 04d9 4aeb a130 31c0
000005c0: 40de efa1 68c7 cb3f 3896 4321 f7ff 34c0
000005d0: 084e 5b01 1b81 1d40 5ef8 5f84 e058 1040
000005e0: aa8c b2fb 2d85 4e40 ca60 dcc6 37c8 3140
000005f0: fcb5 f018 7426 2d40 6c6d cbbf 78e8 3140
00000600: 2a73 e7ee eb0f 46c0 a8df 0511 247e 2ec0
00000610: 74d0 4abe d1e7 07c0 bd2c 4a65 a2b3 3640
00000620: 5f51 060d 0d2d 3440 dae6 729d a151 1cc0
00000630: 9e8d 516c e051 3ac0 c412 c8df 4d9d 36c0
00000640: 68aa d0a6 ba47 4240 8aee 545f 8003 4e40
00000650: 03e9 1f02 3081 4440 c837 2a2a b9a8 2c40
00000660: fca7 5103 5b8c 1a40 50af c590 0523 3ac0
00000670: 68c8 4b4c 58eb 21c0 dccc d539 e462 11c0
00000680: 6b68 6682 e603 5140 60e2 a0f0 0873 1c40
00000690: 00f2 b5f5 46df 0e40 be38 d350 0c85 3340
000006a0: ae0b 5994 798e 3940 207d 32cc 4a7b 4d40
000006b0: 74a5 7dfc c34e 31c0 2d22 e084 bea5 4440
000006c0: 9560 95e9 bb37 5440 140f e830 b62c 2840
000006d0: b80e 8591 a972 2540 c0d2 0349 63d1 3dc0
000006e0: 9847 0686 6037 3a40 98df 11d9 3bbe 1dc0
000006f0: 3ecc df16 e27a 39c0 c2cc 3f5d 722e 3fc0
00000700: 88c6 2058 e450 35c0 bc17 7809 d162 3240
00000710: 0871 33ed 7288 39c0 0c3d 621b 5a17 3ec0
00000720: c83e 7b1a 83e5 3140 ee21 3fe6 e86f 3240
00000730: 93a9 a6d0 2319 4740 77fa 381d 04f6 3240
00000740: c66e 311f 6700 3c40 1860 27d3 cd2c 40c0
00000750: bc60 88bf 6e40 2a40 fd7f 9b3f b4b5 2d40
00000760: 5b04 2ba7 1c38 4340 6464 9053 0992 5dc0
00000770: e94a 98e0 a261 6dc0 585c 62f4 bd48 5dc0
00000780: 8e78 32ca a549 30c0 5992 a22b a402 4240
00000790: 88fc a004 ae0e 12c0 15d8 67c2 110c 6440
000007a0: a960 4147 2d78 7840 e469 8874 b587 7740
000007b0: c0b6 4ce3 6dee 6340 f336 475b dbf6 5040
000007c0: 6ab2 7aa2 a87d 3d40 73e6 8862 72a6 2540
000007d0: 8764 2cab a1b7 1640 3d4a 64d2 6089 0140
000007e0: 3c1c aeff 9f49 fe3f 666f 3c51 56d4 df3f
000007f0: fa94 328c d88f de3f e039 b917 0e03 ca3f
