train_data/neuron_weights/neuron_weights_ellipse.npy (npy, 131200 bytes, 1 tensors)

array f8 [128, 128]
0	0x3fdfb73abca87c96	0.49555843757293283
1	0x3fe41698274fa649	0.6277580993457345
2	0x3fe26e62a9ae7647	0.5759747804729124
3	0x3fc1edcc66346580	0.14006953230345331
4	0x3fdb6a83ed0e05fa	0.4283761801708291
5	0x3fdd66aa78c56792	0.45939122957280987
6	0x3fd00e21fd889d80	0.25086259612222506
7	0xbfe19ca7c2ee66b0	-0.5503729636431753
8	0xbfbcb68b827bf050	-0.11216041503570406
9	0xbfebf78047d818d4	-0.8739625361638681
10	0xc00c2fb23a18a628	-3.523289159657697
11	0xc01766b5f30c4a70	-5.850303456902665
12	0xc019435e00202130	-6.31578827091316
13	0xc0202ea04b90b663	-8.091066705145925
14	0xc02b9ebcb9648b69	-13.810033601306445
15	0xc03181ee10e077fa	-17.507538847734374
16	0xc036d10ef4a53284	-22.8166344550432
17	0xc03ca20543b169d8	-28.6328928287638
18	0xc04016d187617c1c	-32.17826931247711
19	0xc04332d76598f1ca	-38.39719839065545
20	0xc046ad36ef998cc7	-45.3532390117412
21	0xc0469426ae36621c	-45.1574304357093
22	0xc0496e01f32f35aa	-50.85943450741918
23	0xc049836322685d84	-51.0264628419491
24	0xc04bf24a4ddf441a	-55.89289258386289
25	0xc04d87c0babb399e	-59.06056913511132
26	0xc04cc005ec6f609a	-57.50018077314708
27	0xc04d7e6136de66f5	-58.987341745943844
28	0xc050f477da4fec40	-67.81981523327795
29	0xc050361c0809bf60	-64.84546090080175
30	0xc053a2da403805a4	-78.54457097502615
31	0xc051cb9c0a3a35ad	-71.18139892277277
32	0xc052ff0e5423c29a	-75.98524955265239
33	0xc053a189770886d2	-78.52401519615822
34	0xc054b5fd4157e546	-82.84358247359805
35	0xc0547a51f79ef8ec	-81.91125288509983
36	0xc057685036adadfa	-93.629895848855
37	0xc059e1cd36f2d587	-103.52815030779139
38	0xc059390f28e16424	-100.8915502739988
39	0xc059b2c9ec79603a	-102.79357444623102
40	0xc059973f49d601d5	-102.36323781870972
41	0xc05c5a3a53efa19c	-113.40981005097859
42	0xc05bbf358a38132d	-110.98764281726899
43	0xc05cd9a9713744cf	-115.40096693417875
44	0xc05d576edaddc852	-117.3661410489888
45	0xc060032183c7632d	-128.0978411573682
46	0xc0609495ccffbcdf	-132.6432862276915
47	0xc060c6c9b200b11a	-134.21212101111524
48	0xc0616c69cb07cc9c	-139.38791419528286
49	0xc06243fc10ddc925	-146.12451976125263
50	0xc06252fd8d5d98ba	-146.59345119743904
51	0xc062e17c32bede14	-151.04641091612632
52	0xc062f858dc7de72d	-151.76084732618747
53	0xc06338dd5b6aa3b0	-153.77702112987527
54	0xc0634be71f933e62	-154.37196329840214
55	0xc06392fc93869127	-156.59333206446283
56	0xc063043682e8c331	-152.13165421925945
57	0xc063273cf028a5de	-153.22618873538062
58	0xc063bd35e9a66831	-157.91283113957755
59	0xc062b776c80fca42	-149.73324969371794
60	0xc062251dfc7d67ba	-145.15991043561172
61	0xc0613a2c27a5c64c	-137.81788999917842
62	0xc060ad4d6e350de0	-133.41570196497105
63	0xc0608692558f5831	-132.20536306378338
64	0xc06123d841b4d7aa	-137.12014851876057
65	0xc0624a0101fdd22a	-146.31262301992803
66	0xc0621f545f9ad950	-144.97904949420854
67	0xc0622662ffe99b7a	-145.1995849192279
68	0xc062c84665663576	-150.25859327280676
69	0xc0624baac6a7f078	-146.3645966796937
70	0xc06273e1c771685c	-147.6213109221452
71	0xc0618aa3af6cf29c	-140.33248111037108
72	0xc061668a3391a3ca	-139.20437029309534
73	0xc0620886f744b3ea	-144.266475328622
74	0xc0623470e3cb32f4	-145.6387804955226
75	0xc063123598335354	-152.56904230141174
76	0xc0626c0255dd4c06	-147.37528508398117
77	0xc060c2ed11689bea	-134.0914389651437
78	0xc0603449516b9496	-129.63394995700645
79	0xc05ff6e148286270	-127.85750011390496
80	0xc06160ae3ed5b522	-139.02127019634014
81	0xc06177b484638d02	-139.74078578418272
82	0xc05fff21edc918bc	-127.98644585264532
83	0xc0603b1324e051e8	-129.84608691990366
84	0xc06072e846582a48	-131.59085385532148
85	0xc061d77e935eccee	-142.73420113101696
86	0xc060b2d6f28804fc	-133.5887386948233
87	0xc060f8366a101c95	-135.75664237162405
88	0xc0617abb21ce016c	-139.83534326777897
89	0xc0625696416af01c	-146.7058417404777
90	0xc062e33e4d7b7521	-151.10135530579376
91	0xc062b3ecb29786e0	-149.62264375300492
92	0xc060d13d3abde1df	-134.53872429930104
93	0xc05faba5913de73c	-126.68198042912712
94	0xc05daf27fea422c0	-118.73681608227616
95	0xc05fd3badb118e4c	-127.30827976908148
96	0xc0600a43e428f034	-128.32078750606308
97	0xc05d1dd74aa781f7	-116.46626535757228
98	0xc05ec8f4535d60e4	-123.13991245383255
99	0xc05e194dc7b502d3	-120.39537232090815
100	0xc05df97874f19c56	-119.89797710032266
101	0xc05bd75753aa8726	-111.36470500615232
102	0xc05bdf88ba447851	-111.49272019087336
103	0xc05abbaeaf8588ed	-106.93253696480288
104	0xc0576262e956c37a	-93.53728707764631
105	0xc0593867d1902690	-100.88133658482752
106	0xc058751bff8db642	-97.82983387793595
107	0xc05617a2cc328ae3	-88.36931137977403
108	0xc0551bca20236a64	-84.43421176394037
109	0xc053a1d3106c5f02	-78.52850733359449
110	0xc0543e261c973b2e	-80.97107615250272
111	0xc04ae0c680a2f987	-53.75605781514883
112	0xc048a4d065f61d86	-49.287609810994624
113	0xc04eb26806e9eecc	-61.393799652314186
114	0xc04841f5c1981c6c	-48.51531238486572
115	0xc03f7f53fcf89bec	-31.49737530774648
116	0xc034f5ed10c0cd18	-20.960648581572144
117	0xc0267bc4041cb714	-11.241729858880298
118	0xc01cc0daa5c4423c	-7.188334074119265
119	0xc012fc1aa2db964f	-4.746195358898674
120	0xc01226d7d5f82cce	-4.537932723305131
121	0xbff50f3a81f52b26	-1.316217906615472
122	0xbfd2f639474fc58c	-0.2962783047106192
123	0xbfb0c0a9b4477438	-0.06543980265946991
124	0xbfdf2e806d15c0a2	-0.48721323635892066
125	0x3fec82a35b197e57	0.8909470347679854
126	0x3f845a224a2c6180	0.009937541855422394
127	0x3fc881a62663b184	0.19145657419666062
128	0x3fea7fe9449b31d2	0.8281141605344209
129	0x3fdcb7b464689422	0.44871244245070063
130	0x3fe04822bd6bb943	0.508805627787105
131	0x3fdc37b6db1bc89a	0.4409005298358665
132	0x3fd4cbf22c790dec	0.32494787543347914
133	0xbfc63ddcd6db5b50	-0.17376289835984915
134	0xbff337c8ad7b62bd	-1.201119115509001
135	0xc0197787554c9105	-6.366727192686317
136	0xc02cdc7fa2e88ca2	-14.430661288154003
137	0xc0403dbc6bf75513	-32.48231267525457
138	0xc05199d850962df2	-70.40382780710186
139	0xc05aa07b50735423	-106.50752650511326
140	0xc0610f24d4c949b8	-136.4732459956556
141	0xc0612277e23b291a	-137.07713424258037
142	0xc063cd46868a9b76	-158.41485907623036
143	0xc05e40f571eeab34	-121.0149807768583
144	0xc0600ba0306e895b	-128.36330434407395
145	0xc060da3039bfdd8c	-134.8183869120952
146	0xc0622ab84caebb1d	-145.3349975025857
147	0xc0628bb80b39e8d0	-148.36621629057345
148	0xc05a6b6a785d43b6	-105.67837342365132
149	0xc04e154057376cf6	-60.16602602201776
150	0xc052bef45b57c2c0	-74.98366435594926
151	0xc04f2fe916472a9a	-62.37430075144694
152	0xc03574ba76538a96	-21.455970187564695
153	0xc0139b0e9ff701f0	-4.901422976924081
154	0xc038139793408b66	-24.076531604059163
155	0xbff2eb062cfde1a0	-1.1823789365281314
156	0x402b09c034c7b3e4	13.519044541719218
157	0x4023647ab30fb51b	9.696248622577107
158	0x404e85ba0b91d68f	61.0447401487446
159	0xbffff713c8b0b668	-1.997821601816577
160	0x40433cb26c25228f	38.47419502080185
161	0x405021e188ad9311	64.52939049673684
162	0x402857cbbc99becd	12.171476262824763
163	0xbff38082df8c3360	-1.2188748104410578
164	0xc0248d533ed11098	-10.27602573682843
165	0xc026042e5eb477a0	-11.008166274575899
166	0xc0405c293f6b2810	-32.720008780787
167	0x3ffc58f129f5a870	1.77171436682195
168	0x4037065ed034b59c	23.024884236210355
169	0x4041fa55391953ee	35.95572580086433
170	0x4048823b3e905722	49.017432995299046
171	0xc027746dad99e554	-11.72739927772151
172	0xc02e92fbc6b74d60	-15.287077150226366
173	0xbff080e6a0d2d0a8	-1.0314699442069841
174	0x402fbf24ae79d32d	15.873326732989506
175	0x401549f06594f2f6	5.322206103531007
176	0x4038b0934774d094	24.689747301120022
177	0x4041046827138de0	34.034428486392926
178	0xc041af47fd040fd7	-35.36938440988859
179	0xc003b12911a34990	-2.461504113956103
180	0x404659c068a40287	44.70118434913916
181	0x403c6574f60b8b0b	28.39631593496146
182	0x40497c06dbb90662	50.96895929846211
183	0x40319b15ba4dc1c6	17.605800289138436
184	0x3fe560cd74fb98d0	0.6680667195148775
185	0x40361dac6f5c4b43	22.11591239932319
186	0xc01a79ff3ab5c500	-6.619137685150463
187	0xc006e594b7c2b07c	-2.8621000629701125
188	0xc04e1d4c6497ac62	-60.22889382749487
189	0xc0301238af613e16	-16.071177445641375
190	0xc02c97fc76943f44	-14.296848016354154
191	0xc030dbf65c155098	-16.859227900699437
192	0x4046839405cc9445	45.02795479287355
193	0x4030b1f19937bd72	16.695092750652698
194	0x400bd492e073d3dc	3.4787957702014705
195	0xc0358a8e020472e2	-21.541229368291972
196	0xc033c35333d32112	-19.762988318486414
197	0x401d22141808441a	7.283279777054327
198	0x403b24bf936c35e0	27.143548215788428
199	0x4037322c63d80140	23.19598983787114
200	0xc041c4670c8504bb	-35.534394802999905
201	0xc04d1a77beb955dd	-58.20677932786541
202	0xc04413ee11f6a03b	-40.15570282499581
203	0xc02bc396f281424c	-13.88201101138943
204	0xc0187bffd5140f00	-6.1210931104176325
205	0x403b0dc836b0c108	27.053836267617072
206	0x40239d87a2b046e8	9.807675441759287
207	0x4013286733255164	4.78945617594977
208	0xc050c83561c2b957	-67.12825817123426
209	0xc019de2b42e44138	-6.466961903745236
210	0xc0061e22bb14c3b0	-2.764714681216411
211	0xc0327914eb43f276	-18.472975448692942
212	0xc038ebe765e9ff1e	-24.921499604824128
213	0xc04cb835fc271e68	-57.43914749059769
214	0x4032022842f455c6	18.008426842357743
215	0xc0447b30fb032831	-40.96243226675177
216	0xc053c923c19fb505	-79.14280739399335
217	0xc026baded1d24d1c	-11.3649812287536
218	0xc0246620af343214	-10.199468112107787
219	0x403f0c1810702e46	31.047242190730934
220	0xc039595cd31139b4	-25.3490726391844
221	0x401f25f0b0b95bc0	7.787050973237399
222	0x403a106970c41ab6	26.064108894230877
223	0x404004a780657340	32.036361741577366
224	0x4036862affb96626	22.524093611491615
225	0xc031b354efd8e78c	-17.70051478429336
226	0x403a9b5cfcdc39e8	26.60688763023964
227	0x403f8bbd8dce1032	31.545861113365568
228	0xc0307839f8559481	-16.469634552854135
229	0xc031dba7e2654acc	-17.85803046200708
230	0xc046ab9be1ec4311	-45.34069465671758
231	0xc03217179d4777b3	-18.09020407671751
232	0xc03a606160256542	-26.376485833291788
233	0x4040b4e01ec8b3ea	33.413089607238206
234	0xc0288f922f62edc8	-12.280412178827547
235	0xc02c481c7bb6d04d	-14.140842310014841
236	0xc042701ae4c148f3	-36.87582072675459
237	0x405dcad905646d0e	119.16949591452814
238	0x406d7ca7bc22a66d	235.89547545211408
239	0x405d824f66cf86d0	118.03609628931304
240	0x403110019ca8d24c	17.06252459642046
241	0xc0416e9e3b3a9101	-34.86420383796395
242	0x40168152f1e8fe40	5.626292972417616
243	0xc063f342a1435af7	-159.60188353686655
244	0xc0786fe1cef89b14	-390.99262902366286
245	0xc0777a78c8590dec	-375.6544879416167
246	0xc063d5eac5816a61	-158.6849086311004
247	0xc050b94aa2778a86	-66.89518033670365
248	0xc03d4561d44b8cda	-29.271024006314157
249	0xc0230c8524dd3362	-9.524453308107415
250	0xc0118700d07d7f37	-4.381839044246411
251	0xbff1a2a8d914d29e	-1.1022118072261615
252	0xbfebc99b2376263b	-0.8683601086242513
253	0x3fd11ece8f64712a	0.26750530245932913
254	0x3fc2ce667dcb2d08	0.1469238390185199
255	0x3fdba8764117564a	0.4321571002632011
